model/model.pth (torch, 16787 bytes, 4 tensors)

linear1.weight f4 [256, 11]
0	0x3e232e28	0.15935576
1	0x3d8b5f42	0.06805278
2	0xbdebae74	-0.11507884
3	0xbe0d1288	-0.137766
4	0xbe7938dd	-0.24338098
5	0xbea4e814	-0.32208312
6	0x3e7f1504	0.2491036
7	0xbebb7340	-0.36611366
8	0xbddda4b4	-0.1082243
9	0xbe60d095	-0.21954568
10	0x3e83e2a7	0.2575886
11	0x3e42c5df	0.19020794
12	0xbdef76b0	-0.1169256
13	0x3d9d4e44	0.076809436
14	0xbe287a09	-0.16452803
15	0xbe5b1e6f	-0.21398328
16	0xbe2c51c2	-0.16828063
17	0xbe1ddf6e	-0.15417263
18	0xbe4b1e4a	-0.19835773
19	0xbe96a701	-0.2942429
20	0xbdea980c	-0.11454782
21	0x3e0eca5b	0.1394438
22	0x3eba5a8c	0.36397207
23	0x3e69aa71	0.22818924
24	0xbeb05c3f	-0.34445378
25	0xbc373285	-0.011181478
26	0xbe4d75fb	-0.20064537
27	0x3e6ed329	0.23322739
28	0x3e594492	0.21217564
29	0x3e9034f0	0.28165388
30	0x3ee45332	0.44594723
31	0x3c375b93	0.011191267
32	0x3d9d1e16	0.07671754
33	0xbdff353a	-0.12461324
34	0xbf168b5c	-0.58806396
35	0xbe51e0b1	-0.20495869
36	0x3e0c2d4f	0.13689159
37	0x3dce753b	0.10080954
38	0x3ef63ae9	0.4809182
39	0x3e8012f9	0.25014475
40	0xbf0c3c51	-0.54779536
41	0xbe6e57f0	-0.23275733
42	0x3eb22182	0.3479119
43	0x3e21f2b1	0.15815236
44	0x3d8ce760	0.06880069
45	0x3ee1c53a	0.44095784
46	0xbd8bdce5	-0.06829242
47	0xbe4699aa	-0.19394556
48	0x3ddfa8ca	0.10920866
49	0xbe1d7bff	-0.15379332
50	0xbe6b1fcb	-0.22961347
51	0x3eac8be3	0.33700475
52	0x3ed5fe16	0.41795415
53	0x3dec66b3	0.11543026
54	0x3e08d276	0.13361534
55	0x3ee89b30	0.454309
56	0xbe05494a	-0.13016239
57	0xbe017273	-0.12641315
58	0xbdff9d00	-0.12481117
59	0xbe98f73b	-0.29876122
60	0x3e50d53b	0.20393841
61	0x3ddc6d00	0.107629776
62	0x3e7e46f8	0.2483176
63	0x3ec80567	0.39066622
64	0xbd1defec	-0.038558885
65	0xbc8dfed8	-0.017333433
66	0xbf0378de	-0.51356304
67	0x3dcb71af	0.09933793
68	0x3e056b9d	0.13029332
69	0x3e8ad149	0.27112797
70	0xbe9fd906	-0.31220263
71	0x3d7784f3	0.060429525
72	0xbd9725ff	-0.07380294
73	0x3e169ac5	0.14707477
74	0x3c1545e1	0.009110899
75	0x3e45f1d3	0.1933053
76	0x3dbdbd6e	0.092646465
77	0xbeb5585b	-0.35418972
78	0x3ea62592	0.3245054
79	0xbd026186	-0.031831287
80	0x3d8b51ef	0.06802737
81	0x3bb2e2d3	0.0054591685
82	0xbeccb01a	-0.39978105
83	0x3e0e2bac	0.13883847
84	0xbcbf6673	-0.023364281
85	0xbd07284e	-0.032997422
86	0xbddb30a5	-0.107026376
87	0x3e314545	0.1731158
88	0x3e8b2c80	0.27182388
89	0x3e89bb75	0.2690083
90	0x3f007bca	0.5018889
91	0x3e1cba37	0.1530541
92	0x3d83715f	0.06418108
93	0xbeb279da	-0.3485859
94	0xbe70dfd2	-0.2352288
95	0x3e37a987	0.17935763
96	0x3deff643	0.117168926
97	0xbb3ddfe1	-0.0028972554
98	0xbe41edd8	-0.18938386
99	0x3e4a81ca	0.19776073
100	0x3dd19337	0.10233157
101	0x3f0818c2	0.5316278
102	0xbd994b8b	-0.07485112
103	0xbc2a2c83	-0.010386589
104	0x3e3a48c6	0.18191823
105	0xbdd6c372	-0.10486497
106	0x3e461eb8	0.19347656
107	0x3e7f7d6b	0.24950187
108	0x3d23bdf1	0.039976064
109	0x3e3700dd	0.17871423
110	0xbd005fe1	-0.031341437
111	0x3f172bce	0.59051216
112	0xbecf956b	-0.40543684
113	0x3e5c10c9	0.21490778
114	0x3b992f16	0.0046748025
115	0xbda2bade	-0.07945798
116	0xbe9c0de5	-0.3047935
117	0x3e508c0d	0.20365925
118	0xbd608dd9	-0.054822776
119	0xbe08792f	-0.13327478
120	0x3ddb6a71	0.107136615
121	0x3e9757dc	0.2955922
122	0xbec4704a	-0.3836692
123	0x3d0c9165	0.034318347
124	0xbe7d1e88	-0.24718678
125	0x3e791697	0.24325024
126	0xbe08ea70	-0.13370681
127	0x3e3a6e26	0.18206081
128	0x3ea75740	0.32683754
129	0xbe576ec2	-0.21038345
130	0x3d9eeb39	0.07759709
131	0xbec8c1a8	-0.39210248
132	0xbeaa3952	-0.33246857
133	0x3f1f9aac	0.62345386
134	0xbe72d307	-0.23713313
135	0xbd0cbe69	-0.034361277
136	0xbdc34289	-0.09534175
137	0x3e67a61a	0.22621956
138	0x3e8a5c5e	0.27023596
139	0xbeaa9751	-0.3331857
140	0xbe180dc4	-0.14849001
141	0x3e09279c	0.13394016
142	0x3e5ba45f	0.21449421
143	0x3ea7eda8	0.32798505
144	0xbf17ef15	-0.59349185
145	0x3ee10d5f	0.43955514
146	0x3d8329bc	0.064044446
147	0x3e56bf99	0.20971526
148	0x3d99a5f8	0.07502359
149	0x3e1742af	0.14771532
150	0x3dd558b1	0.10417307
151	0x3da1fbb1	0.079093345
152	0x3dc99eef	0.09844767
153	0xbda5c6b0	-0.08094537
154	0x3da724b3	0.08161297
155	0xbe2dc0cb	-0.16968076
156	0x3dae15d3	0.085002564
157	0xbe7b59a4	-0.24545914
158	0xbeee27f6	-0.46514863
159	0x3e90a9f9	0.2825468
160	0xbe170a11	-0.14749934
161	0x3e9394c8	0.2882445
162	0xbee5bda0	-0.44871235
163	0xbe293860	-0.16525412
164	0x3e5818a3	0.21103148
165	0x3d66953f	0.056294676
166	0x3f484f71	0.7824622
167	0xbe2d6979	-0.16934766
168	0x3e089577	0.13338266
169	0xbe85feae	-0.26170868
170	0xbca65a20	-0.020306647
171	0x3e52cfca	0.20587078
172	0xbea4b0d6	-0.32166165
173	0xbe4a6f4e	-0.19769022
174	0xbe971062	-0.29504687
175	0x3e39ed7c	0.18157
176	0x3f0cdb8c	0.550225
177	0xbd884037	-0.06652873
178	0xbda3fb0f	-0.0800687
179	0xbe7f920b	-0.24958055
180	0x3cebd2b5	0.028786996
181	0xbe8074ff	-0.2508926
182	0x3e7430d9	0.23846759
183	0x3e74810d	0.23877354
184	0xbe3f02d1	-0.18653418
185	0xbd88a166	-0.06671409
186	0xbe47a2ee	-0.19495746
187	0xbeb971cc	-0.36219633
188	0xbead0134	-0.3378998
189	0x3f1e777a	0.61901057
190	0xbb0148f0	-0.0019727312
191	0x3da8c13e	0.08239983
192	0x3e77d29c	0.24201435
193	0x3e768278	0.24073207
194	0xbe411dbc	-0.18858999
195	0x3d0fd7aa	0.035117783
196	0xbe57957d	-0.21053119
197	0xbe81a37a	-0.25320035
198	0xbe289859	-0.16464366
199	0xbe9849c5	-0.29743782
200	0x3bca48f1	0.006173246
201	0x3e010632	0.1260002
202	0xbebc1ffb	-0.3674315
203	0x3dc9ec50	0.09859526
204	0xbcfeea72	-0.031117652
205	0x3e796757	0.24355827
206	0xbe84bf52	-0.25927216
207	0x3d9acd5b	0.075587
208	0x3e850c42	0.25985914
209	0x3df26bed	0.118369915
210	0xbdf59434	-0.11991158
211	0xbbfd5f06	-0.007732275
212	0x3e0006ee	0.12502643
213	0xbe996dd5	-0.29966608
214	0xbd0a2b11	-0.033732478
215	0x3d1c543b	0.038166266
216	0xbd562844	-0.052284494
217	0xbe23e2da	-0.16004506
218	0x3d9183b2	0.07105197
219	0xbe09ab94	-0.13444358
220	0x3ecf760a	0.40519744
221	0xbd3ba283	-0.04580928
222	0x3ef37152	0.47547394
223	0xbcef20d5	-0.02919046
224	0x3e8c9501	0.2745743
225	0xbdcc4f56	-0.0997607
226	0xbe7dd588	-0.24788487
227	0x3e954451	0.29153684
228	0x3d2b8e61	0.04188383
229	0x3ec21e0d	0.37913552
230	0x3ed79f23	0.421136
231	0xbdc1bc90	-0.094597936
232	0xbe16ec0d	-0.14738484
233	0x3f3f82eb	0.7480914
234	0xbc74e60f	-0.014947428
235	0x3e9feef7	0.31237003
236	0x3e887ca5	0.26657596
237	0x3e08af98	0.13348234
238	0xbe23bb6d	-0.15989466
239	0x3e3d540d	0.18489094
240	0xbe3269d1	-0.17423178
241	0x3c551d1a	0.013007427
242	0xbe724138	-0.23657691
243	0x3e6196c8	0.22030175
244	0x3ec7a936	0.38996285
245	0xbdae5fbd	-0.085143544
246	0xbe10fb88	-0.14158452
247	0x3e52c9e4	0.20584828
248	0xbe7b8d53	-0.2456563
249	0x3e723cb4	0.23655969
250	0x3e90647e	0.2820167
251	0x3db75a24	0.0895274
252	0x3dabfe12	0.083980694
253	0x3f0bbea3	0.54587764
254	0xbe546b4b	-0.20744054
255	0xbe1b2680	-0.15151405

linear1.bias f4 [256]
0	0xbce7ca03	-0.028294569
1	0xbe80a07a	-0.25122434
2	0xbe92f96b	-0.28705916
3	0x3ad551eb	0.0016275024
4	0x3d513e1f	0.051084634
5	0xbe0b40d8	-0.13598955
6	0x3ec2da9b	0.38057408
7	0x3e69be8d	0.22826596
8	0xbc81084c	-0.015751027
9	0xbc0d6ef1	-0.0086324075
10	0x3e5035a3	0.20332961
11	0xbdb6f797	-0.08933943
12	0x3d7cbcce	0.061703496
13	0xbdc6ac87	-0.09700876
14	0xbdba1554	-0.09086099
15	0x3c6f5114	0.014606733
16	0xbaba840e	-0.0014230029
17	0x3f014069	0.5048891
18	0xbe4e39c2	-0.2013922
19	0xbe7ab06e	-0.24481365
20	0xbe6e7195	-0.23285516
21	0xbe356309	-0.1771356
22	0x3e976c4f	0.2957482
23	0xbe235785	-0.15951355
24	0x3e3731cb	0.17890088
25	0xbe062d28	-0.13103163
26	0x3e3b8cae	0.18315384
27	0xbe15b949	-0.14621462
28	0x3e849006	0.2589113
29	0xbe8dae27	-0.2767193
30	0x3e63333e	0.22187516
31	0xbcbe76da	-0.023250032
32	0x3e0d279f	0.13784645
33	0xbdff051c	-0.124521464
34	0xbaaad25a	-0.001303266
35	0xbe982ef9	-0.29723337
36	0x3e89fbf3	0.26950034
37	0xbdf75ef8	-0.12078661
38	0x3de6fb2f	0.11278378
39	0x3e949982	0.29023367
40	0xbe1993bd	-0.14997764
41	0xbe44e305	-0.19227226
42	0xbe766157	-0.2406057
43	0x3ea037e0	0.3129263
44	0xbda13b8d	-0.078726865
45	0xbde8c177	-0.113650255
46	0xbd491920	-0.049096227
47	0x3d1c668a	0.038183726
48	0xbe6221bd	-0.22083183
49	0x3e10dd45	0.14146908
50	0xbc7a4ce7	-0.015277124
51	0x3dca554a	0.09879549
52	0x3d94e9bc	0.07271144
53	0xbe73348b	-0.23750512
54	0x3da36bca	0.079795435
55	0xbc884793	-0.016635692
56	0x3c437e98	0.011932038
57	0x3e5f92ae	0.21833298
58	0xbe86c7e2	-0.26324373
59	0x3e53a7ef	0.2066953
60	0x3d1fe340	0.039035082
61	0xbc8a4cfb	-0.01688241
62	0xbdd713ca	-0.10501821
63	0xbd53b970	-0.05169052
64	0xbe3cffc3	-0.1845694
65	0xbe7621c9	-0.24036326
66	0xbe8cf83c	-0.27533138
67	0x3b51c708	0.00320095
68	0xbdc94e72	-0.098294154
69	0xbe0a0d0e	-0.13481542
70	0x3e52b04f	0.20575069
71	0xbdf0344f	-0.11728727
72	0xbe847e24	-0.25877488
73	0x3e6ed14f	0.23322032
74	0xbdbb5f89	-0.09149081
75	0xbe6b6ad8	-0.22989976
76	0xbe516f7d	-0.20452686
77	0x3d0090c3	0.031388056
78	0xbe06cb3f	-0.1316347
79	0xbe02a9d8	-0.12760103
80	0xbd32a9f2	-0.043619104
81	0xbe711cd2	-0.2354615
82	0x3d4804a1	0.04883254
83	0xbdf59261	-0.1199081
84	0xbe84d05a	-0.2594021
85	0xbe212a9b	-0.15738909
86	0x3d488746	0.04895713
87	0x3e0af564	0.13570172
88	0xbe17556d	-0.14778681
89	0xbe9eb5bd	-0.3099803
90	0xbdd5d93d	-0.104418255
91	0xbe869e6d	-0.26292744
92	0xbe824b94	-0.25448287
93	0x3dfa3509	0.12217147
94	0x3e22b5e0	0.15889692
95	0x3dc07910	0.09398091
96	0x3d193ade	0.037409656
97	0x3cb29766	0.021800708
98	0xbe66aa04	-0.22525793
99	0xbda3dd96	-0.080012485
100	0xbdeb9c47	-0.11504417
101	0xbd306631	-0.043066207
102	0x3d163e65	0.036680598
103	0xbddb1cab	-0.10698827
104	0x3ddb7131	0.10714949
105	0xbd86a6be	-0.06574772
106	0xbdf5d072	-0.120026484
107	0x3e2c92ab	0.16852824
108	0xbe6905ba	-0.22756091
109	0x3d111f41	0.035430197
110	0xbda748bf	-0.08168172
111	0x3d5291be	0.05140852
112	0x3c81218c	0.015763067
113	0x3e89b166	0.26893157
114	0x3ca52108	0.020157352
115	0x3e602795	0.218901
116	0xbd9a599e	-0.07536624
117	0x3e073fae	0.13207886
118	0xbdb2b2ba	-0.08725496
119	0xbe61f323	-0.22065406
120	0x3dca9d76	0.098933145
121	0x3dc8b6fa	0.09800525
122	0x3cbc9446	0.023019921
123	0x3ee97e34	0.45604098
124	0xbe10aec1	-0.14129163
125	0xbdb76045	-0.08953909
126	0x3e28420d	0.16431446
127	0xbdf29d30	-0.118463874
128	0xbeb24712	-0.34819847
129	0x3d035fc4	0.03207375
130	0x3e9768ab	0.29572043
131	0xbeb67450	-0.35635614
132	0xbdebee32	-0.115200415
133	0xbce624d3	-0.028093731
134	0x3e8049b2	0.25056225
135	0xbe41e3a8	-0.189345
136	0xbe806a60	-0.25081158
137	0xbe25ae59	-0.1617979
138	0xbc97279f	-0.01845151
139	0xbdb8bbb5	-0.09020177
140	0xbe40fd52	-0.18846634
141	0x3d0921cb	0.033479493
142	0xbd4679ba	-0.04845593
143	0x3e50e514	0.20399886
144	0xbe5b6af6	-0.21427521
145	0xbe88f46f	-0.26748988
146	0xbe7cf13f	-0.24701403
147	0xbdf93950	-0.121691346
148	0xbe0d125e	-0.13776538
149	0xbe669a69	-0.2251984
150	0x3e18244d	0.14857598
151	0xbc4c1900	-0.012457132
152	0xbdb5c22b	-0.08874925
153	0x3ea1c64f	0.3159661
154	0xbe10c4b5	-0.14137538
155	0xbd0fd94b	-0.035119336
156	0x3e4dac67	0.20085298
157	0x3d4f8465	0.05066337
158	0xbda96450	-0.08271086
159	0xbd42f344	-0.047595277
160	0x3e70f1c8	0.23529732
161	0xbe24ab23	-0.16080908
162	0x3ee468f6	0.4461133
163	0x3dbd3883	0.092392944
164	0xbd0c5d6e	-0.03426879
165	0x3e177a2e	0.14792702
166	0xbde522eb	-0.11188301
167	0xbda7c980	-0.0819273
168	0x3d36108d	0.044449378
169	0xbdb58683	-0.08863547
170	0xbd459fc2	-0.04824806
171	0xbde7365e	-0.112896666
172	0xbcc77537	-0.024347885
173	0xbe5954ae	-0.21223709
174	0xbe0a5cd9	-0.13511981
175	0x3e3e858b	0.1860563
176	0x3b8fb5fc	0.004385708
177	0x3d176549	0.036961827
178	0xbe6f2b7a	-0.23356429
179	0x3bcca47d	0.0062451945
180	0xbd9ed99c	-0.077563494
181	0xbdef90a7	-0.11697512
182	0x3dd9baba	0.106313184
183	0x39db2a19	0.000418023
184	0xbd90d453	-0.07071748
185	0x3ba9e49c	0.005184723
186	0xbe68dc21	-0.22740223
187	0xbe7140eb	-0.2355992
188	0xbcb1c31f	-0.021699486
189	0xbe362a78	-0.17789638
190	0xbe31370e	-0.17306158
191	0x3e132b60	0.14372015
192	0x3dd7ecfd	0.10543249
193	0xbcc439d9	-0.023953365
194	0x3dc28230	0.094974875
195	0x3e67edbc	0.22649282
196	0xbe5beaf0	-0.2147634
197	0xbd3e3dc2	-0.046445616
198	0xbebab07a	-0.36462766
199	0xbdf1c9ef	-0.11806094
200	0xbe6b7498	-0.22993696
201	0x3d10dea9	0.035368595
202	0xbe2a13bb	-0.16609089
203	0x3830bee0	4.2139436e-05
204	0x3e564ef0	0.2092855
205	0x3ebe2746	0.37139338
206	0x3d7c9bd8	0.06167206
207	0x3ea7c90c	0.32770574
208	0x3dc0be90	0.09411347
209	0xbdce7506	-0.10080914
210	0x3d758877	0.059944596
211	0xbe5b50fa	-0.21417609
212	0x3dc3bad1	0.09557117
213	0x3e2919f2	0.16513804
214	0xbb157395	-0.0022804488
215	0xbddc3c23	-0.10753658
216	0xbd87ed4f	-0.0663706
217	0x3ed78293	0.42091808
218	0xbd7b2fdf	-0.06132495
219	0xbe44ee3f	-0.19231509
220	0xbe284665	-0.16433103
221	0x3dcaf87f	0.09910678
222	0x3d206e4f	0.0391677
223	0x3c21009d	0.009826806
224	0x3e89e1f0	0.2693019
225	0x3e06a0e9	0.1314732
226	0xbd9ccdfc	-0.07656476
227	0xbd6239a9	-0.05523077
228	0xbdfe3242	-0.1241193
229	0xbe5543e3	-0.20826678
230	0xbc853d09	-0.016264455
231	0xbcbba576	-0.022906046
232	0x3e06aeb7	0.13152586
233	0x3f085b47	0.5326428
234	0x3ddea1b5	0.10870687
235	0xbe1bf167	-0.15228806
236	0xbe17e208	-0.14832318
237	0xbe682437	-0.22670065
238	0x3d8a7701	0.067609794
239	0x3e89f19d	0.2694215
240	0x3e463ef9	0.1935996
241	0xbde2b37d	-0.11069391
242	0xbd9e2e1e	-0.0772364
243	0xbe070c6a	-0.1318833
244	0x3dd83de7	0.10558682
245	0xbd2a6866	-0.04160347
246	0xbe45487c	-0.19265932
247	0xbd95be43	-0.0731168
248	0xbe1b6af2	-0.15177515
249	0x3d9ca05b	0.07647773
250	0x3e9ebba0	0.31002522
251	0xbdb650ab	-0.08902105
252	0x3e08e21b	0.13367502
253	0xbdf0a182	-0.11749555
254	0xbe2dcac9	-0.16971888
255	0x3e9b6203	0.30348215

linear2.weight f4 [3, 256]
0	0x3e4c5b4c	0.19956702
1	0x3d7606ba	0.06006501
2	0xbebfebe0	-0.37484646
3	0x3eaff7b1	0.3436866
4	0xbda29b9b	-0.07939836
5	0xbeb62f2d	-0.35582867
6	0x3e0fc439	0.14039697
7	0x3e0fcdc2	0.14043334
8	0x3cb32db4	0.021872379
9	0xbd6e63b5	-0.058200557
10	0x3d1f90cb	0.038956445
11	0xbe32954d	-0.17439766
12	0x3e93a73e	0.28838533
13	0xbdb247b9	-0.08705086
14	0xbe9ac1d8	-0.30226016
15	0x3e2df816	0.16989169
16	0xbe8f6d3a	-0.2801302
17	0x3e8dd519	0.27701643
18	0xbc7c1b4c	-0.015387367
19	0xbc165d39	-0.009177499
20	0xbeb1ea4c	-0.34749067
21	0x3d824eba	0.06362672
22	0x3d0c4e79	0.034254525
23	0xbe867857	-0.26263687
24	0xbdffa5a2	-0.12482764
25	0xbeb34fea	-0.35021907
26	0x3daf68c7	0.085649066
27	0xbe19220b	-0.14954393
28	0x3ea202b3	0.31642684
29	0xbe8bc97d	-0.2730216
30	0x3da64b40	0.081198215
31	0xbed3a403	-0.4133607
32	0x3e908589	0.2822688
33	0xbe07494d	-0.13211556
34	0xbeb696da	-0.35661966
35	0xbe94bff1	-0.2905269
36	0x3db7aef8	0.089689195
37	0xbdace2d2	-0.084417
38	0x3db1e33e	0.08685921
39	0x3e471742	0.19442466
40	0xbe0f8493	-0.14015417
41	0xbec3a886	-0.3821451
42	0xbedfb656	-0.436938
43	0x3d6992fc	0.05702494
44	0xbde72eb0	-0.11288202
45	0xbeb0de4e	-0.34544605
46	0xbd503fe4	-0.05084218
47	0xbd140531	-0.036137763
48	0xbe391b33	-0.18076782
49	0x3e76c3a5	0.2409807
50	0xbe5dc7d4	-0.2165826
51	0xbe5ffb9e	-0.21873328
52	0xbc8acc2b	-0.016943058
53	0xbc4c2462	-0.012459846
54	0xbeb74a3b	-0.3579882
55	0xbed94c9e	-0.42441267
56	0x3e7d34e4	0.24727207
57	0x3ea8fe59	0.33006552
58	0xbe03dcea	-0.12877241
59	0x3d701d0b	0.058621448
60	0xbc3f642b	-0.011681597
61	0xbeadd6fc	-0.33953083
62	0xbd7be9de	-0.06150233
63	0xbe85ed29	-0.261575
64	0xbe5ebe30	-0.21752238
65	0xbd1a11c0	-0.037614584
66	0x3d8ebc0d	0.069694616
67	0x3eaeaf61	0.34118178
68	0xbeb2b7ae	-0.3490576
69	0xbe0f20e6	-0.13977394
70	0x3ca6abca	0.020345587
71	0xbe9bad68	-0.30405736
72	0x3d071373	0.032977533
73	0x3eb00993	0.34382305
74	0xbee7f440	-0.45303535
75	0x3d315974	0.0432982
76	0xbdc103e4	-0.0942457
77	0xbe9dd6ef	-0.30828044
78	0xbd1be95a	-0.03806434
79	0xbecb8115	-0.3974692
80	0xbe34c77d	-0.17654224
81	0xbdd0a444	-0.10187581
82	0xbe166b44	-0.14689356
83	0xbe19ce87	-0.1502019
84	0x3c8d3310	0.017236263
85	0xbe6fabb3	-0.23405342
86	0x3ce6a65d	0.0281555
87	0x3e8d9404	0.2765199
88	0xbeaa6529	-0.33280304
89	0xbd1fd9e2	-0.03902615
90	0x3e3a37b1	0.18185307
91	0xbe3c940d	-0.18415852
92	0xbe0606d1	-0.13088538
93	0x3d25ca61	0.040476207
94	0xbd681f90	-0.056670725
95	0x3e46ce9a	0.1941475
96	0xbe1b03e4	-0.15138203
97	0xbe5c73d1	-0.21528555
98	0xbc62c4b8	-0.013840847
99	0xbc316673	-0.010827648
100	0x3d7c7e99	0.06164417
101	0xbe37b9cf	-0.17941974
102	0x3c65a330	0.014015958
103	0xbe4589ff	-0.19290923
104	0x3df7abb9	0.120933
105	0xbefa8e0e	-0.48936504
106	0xbe7ca364	-0.24671704
107	0x3ab4724e	0.0013766976
108	0xbd1dd857	-0.038536396
109	0x3e3b351d	0.1828198
110	0x3dfc2e45	0.12313513
111	0x3bb93bcc	0.0056528803
112	0x3dc32dfe	0.09530257
113	0x3e44fb44	0.19236475
114	0xbc9fb811	-0.01949695
115	0xbd4459a6	-0.047937058
116	0x3dc83089	0.09774882
117	0x3e421d1d	0.18956418
118	0xbe82c213	-0.25538692
119	0xbed811ea	-0.42201167
120	0x3d76762c	0.06017129
121	0xbd70a572	-0.05875153
122	0xbca47725	-0.020076344
123	0x3e880a87	0.26570532
124	0xbece64c2	-0.40311247
125	0xbeeffd4e	-0.46872944
126	0x3e4c3d69	0.19945301
127	0xbe5960a2	-0.21228269
128	0xbcea5165	-0.028603265
129	0x3da76292	0.08173098
130	0x3e01af6f	0.12664579
131	0x3ccdf8b6	0.025143009
132	0xbc4bfbc6	-0.012450164
133	0xbec441a1	-0.3833132
134	0x3d87c326	0.066290185
135	0xbc811c89	-0.015760677
136	0xbd8a75c4	-0.06760743
137	0xbdc7a88d	-0.097489454
138	0x3cabad0b	0.020956537
139	0xbe7bb48a	-0.24580589
140	0x3c5e2d88	0.01356066
141	0x3c700fde	0.0146522205
142	0xbe5bf05b	-0.21478407
143	0x3e2e943c	0.17048734
144	0xbe25d094	-0.16192847
145	0xbdafcb48	-0.08583695
146	0xbeb8d073	-0.36096534
147	0x3eaab6e2	0.33342654
148	0x3e7f229c	0.24915546
149	0xbe2384c1	-0.1596861
150	0xbe49c8d6	-0.19705519
151	0xbdfee9f3	-0.12446966
152	0xbedddbdf	-0.4333181
153	0x3e51c7aa	0.20486322
154	0xbe0e7dc3	-0.13915162
155	0xbc785bad	-0.015158576
156	0x3deffd34	0.117182165
157	0x3b3dbbde	0.002895109
158	0x3cd402bf	0.025880216
159	0xbcc35f94	-0.023849286
160	0x3e1a440a	0.15065017
161	0xbec2a73c	-0.38018215
162	0x3e8667e8	0.2625115
163	0x3d9d3b29	0.076772995
164	0xbc3ca5d2	-0.011514144
165	0x3ecdccb2	0.40195233
166	0x3e5d213b	0.21594708
167	0x3e610d3a	0.21977702
168	0xbe8b40f2	-0.27197987
169	0xbcad690e	-0.021168258
170	0xbeac652c	-0.33670938
171	0xbe57f070	-0.21087813
172	0xbd0c2dd6	-0.0342234
173	0xbec32cce	-0.3812012
174	0xbef9d15c	-0.4879254
175	0x3d52808f	0.051392134
176	0x3e52a03d	0.20568939
177	0xbca19bd4	-0.019727625
178	0xbebc3789	-0.3676112
179	0xbf3c42d8	-0.73539495
180	0x3e761410	0.2403109
181	0xbe75a12c	-0.23987263
182	0x3df4f582	0.119608894
183	0xbe8d0175	-0.27540174
184	0xbdea67ab	-0.11445554
185	0xbd4362d2	-0.047701664
186	0xbe5993ff	-0.21247862
187	0x3d036372	0.03207726
188	0x3d94032c	0.072271675
189	0xbe2d87e1	-0.16946365
190	0xbded1947	-0.11577087
191	0xbba927af	-0.0051622014
192	0x3cae2046	0.021255624
193	0x3e35888c	0.1772787
194	0xbe6d97ba	-0.2320241
195	0xbd607a28	-0.054803997
196	0xbec06584	-0.3757745
197	0xbeafaf4b	-0.34313425
198	0xbd92a0d5	-0.071595825
199	0xbed9d432	-0.42544705
200	0xbe8aab93	-0.27084026
201	0xbddda8bd	-0.108232
202	0x3df24826	0.118301675
203	0xbe502227	-0.20325528
204	0x3cba38d2	0.022732172
205	0x3e4b55fc	0.19857019
206	0x3c8b4959	0.017002748
207	0x3ed2f5a8	0.41203046
208	0xbdc17c59	-0.094475456
209	0x3d7b60a0	0.061371446
210	0xbec12cd4	-0.37729514
211	0xbe836931	-0.25666192
212	0xbdad3876	-0.08458035
213	0x3d6bf1ad	0.057603527
214	0xbd3b86dd	-0.045782913
215	0x3e883b9e	0.26607984
216	0xbedb984d	-0.42889634
217	0x3e6459fc	0.22299951
218	0xbe530b6f	-0.2060983
219	0xbe43d415	-0.19123872
220	0xbe61916f	-0.22028135
221	0xbc8b6adf	-0.017018734
222	0xbe3cc91e	-0.18436095
223	0x3e6f52b2	0.2337139
224	0x3d223009	0.03959659
225	0x3d342b3b	0.04398654
226	0xbebbe90f	-0.36701247
227	0xbe2afc87	-0.16697894
228	0xbe22963d	-0.15877624
229	0xbdb1eb69	-0.08687479
230	0xbebeec8a	-0.3728984
231	0xbe57a1a9	-0.21057762
232	0xbbca6ebd	-0.006177752
233	0x3e96b11c	0.29432
234	0xbcb8a34a	-0.0225388
235	0xbeacae23	-0.33726606
236	0xbee34172	-0.44385868
237	0xbd3ca69e	-0.046057336
238	0xbe23bcf0	-0.15990043
239	0x3e1082aa	0.14112344
240	0x3e86a6bd	0.26299086
241	0xbe9c8fbd	-0.30578414
242	0x3e420fdb	0.18951361
243	0x3e9dcb45	0.30819145
244	0xbdf85f23	-0.12127521
245	0xbe24751a	-0.16060296
246	0xbecad308	-0.3961413
247	0x3e7a2801	0.24429323
248	0xbb39d1c5	-0.0028353792
249	0xbec0a47a	-0.37625486
250	0x3e119b45	0.14219387
251	0xbe607af6	-0.21921906
252	0xbdf13fb9	-0.11779732
253	0x3b24f353	0.0025169447
254	0xbea5f24c	-0.3241142
255	0x3dccb3c6	0.099952266

linear2.bias f4 [3]
0	0x3e1e7816	0.15475497
1	0xbd9dbab5	-0.07701627
2	0xbdcc9682	-0.099896446
